Fuentes/es_ancora_tokenizer.pt (torch_old, 633096 bytes, 23 tensors)

embeddings.weight f4 [125, 32]
0	0x00000000	0.0
1	0x00000000	0.0
2	0x00000000	0.0
3	0x00000000	0.0
4	0x00000000	0.0
5	0x00000000	0.0
6	0x00000000	0.0
7	0x00000000	0.0
8	0x00000000	0.0
9	0x00000000	0.0
10	0x00000000	0.0
11	0x00000000	0.0
12	0x00000000	0.0
13	0x00000000	0.0
14	0x00000000	0.0
15	0x00000000	0.0
16	0x00000000	0.0
17	0x00000000	0.0
18	0x00000000	0.0
19	0x00000000	0.0
20	0x00000000	0.0
21	0x00000000	0.0
22	0x00000000	0.0
23	0x00000000	0.0
24	0x00000000	0.0
25	0x00000000	0.0
26	0x00000000	0.0
27	0x00000000	0.0
28	0x00000000	0.0
29	0x00000000	0.0
30	0x00000000	0.0
31	0x00000000	0.0
32	0xbd9a23cd	-0.0752636
33	0x3d818c08	0.06325537
34	0x3d873d56	0.06603496
35	0xbdd7f3ff	-0.105445854
36	0xbda00b61	-0.0781467
37	0xbd4d50ef	-0.050126012
38	0xbe906c7d	-0.2820777
39	0x3d728b75	0.059215028
40	0x3e26f150	0.16302991
41	0x3ceae147	0.028671874
42	0xbd16ec01	-0.036846165
43	0xbd3a0cb7	-0.045422282
44	0x3dfa94e1	0.12235428
45	0xbd7470cd	-0.059677888
46	0x3df7d9e1	0.12102104
47	0x3d1950c0	0.037430525
48	0x3dfb84fc	0.12281224
49	0x3d0d5e5f	0.034513827
50	0xbe1a66ac	-0.15078229
51	0xbe945b9a	-0.28976136
52	0xbdb5e39c	-0.08881304
53	0x3d65e928	0.05613056
54	0xbe307d59	-0.17235316
55	0x3d84a84b	0.06477412
56	0x3e58d10a	0.21173492
57	0x3e272862	0.16323999
58	0x3e39f73a	0.18160716
59	0x3d24ccb4	0.040234283
60	0x3c2634b4	0.010144401
61	0xbe331ce5	-0.17491491
62	0xbea0842c	-0.3135084
63	0x3dc6030c	0.0966855
64	0x3e4d9ef5	0.20080169
65	0x3d987cc3	0.074456714
66	0x3d4fe9ea	0.050760187
67	0xbe3f6868	-0.18692172
68	0x3c7dbec0	0.015487373
69	0xbdba542a	-0.09098084
70	0xbd5a10a8	-0.05323854
71	0x3e3421fd	0.1759109
72	0x3e4e56cc	0.20150298
73	0x3c3709f9	0.011171811
74	0xbe9b930e	-0.3038563
75	0x3dd17601	0.102275856
76	0x3e2843fe	0.16432187
77	0xbc2c203a	-0.01050573
78	0x3d076e77	0.03306433
79	0x3e04c033	0.12963943
80	0x3e322d92	0.17400196
81	0xbdb13190	-0.086520314
82	0xbe9d51d3	-0.3072649
83	0xbedf426a	-0.43605357
84	0x3ce52726	0.027972769
85	0x3debd994	0.11516109
86	0xbe423a7d	-0.18967624
87	0x3ccc398b	0.024929782
88	0x3ea3ef01	0.32018283
89	0xbc278da2	-0.010226639
90	0x3d72d1ee	0.059282236
91	0xbe266390	-0.16248918
92	0x3c910986	0.017704736
93	0x3ec2ec95	0.38071123
94	0xbf1eff6a	-0.6210848
95	0x3d3856cc	0.04500465
96	0x3ef86800	0.48516846
97	0x3f28452e	0.6573056
98	0xbd8087c6	-0.06275897
99	0x3e665db4	0.22496682
100	0x3f2da31a	0.67827
101	0x3f6d331e	0.92656124
102	0xbf029fee	-0.51025283
103	0xbe1caff8	-0.15301502
104	0xbed83ea0	-0.4223528
105	0x3ce1624b	0.02751269
106	0xbf188d0a	-0.5959021
107	0x3f3dd4ab	0.7415263
108	0x3ea0f250	0.3143487
109	0x3e1c18b1	0.15243794
110	0xbe08f589	-0.13374914
111	0x3dfdcb7a	0.12392326
112	0x3e8aa13d	0.2707614
113	0xbeaae40b	-0.33377108
114	0x3fb96635	1.4484316
115	0x3fbe4710	1.4865437
116	0xbf300be4	-0.68768144
117	0xbf25e929	-0.648089
118	0x3f9dacab	1.2318319
119	0x3de645fb	0.112438165
120	0x3e00747b	0.12544434
121	0xbf4ec055	-0.80762225
122	0xbe8f2c2e	-0.27963394
123	0x3f8d8c83	1.1058506
124	0x3e21bd30	0.15794826
125	0xbde8f54d	-0.113749124
126	0x3ee6d005	0.4508058
127	0x3e70b11a	0.23505059
128	0xbe928dbc	-0.2862376
129	0xbf8698f6	-1.051543
130	0xbf9156f8	-1.1354666
131	0x3f56d71f	0.83922
132	0x3f6b6270	0.9194708
133	0x3e4ce83c	0.20010465
134	0xbe897a74	-0.26851237
135	0xbfa7589c	-1.3073916
136	0xbf9b042c	-1.2110648
137	0x3e388482	0.18019298
138	0xbcb7771c	-0.022395663
139	0xbe948e26	-0.290147
140	0x3f112507	0.56697124
141	0xbf5dac76	-0.8659128
142	0x3f34ccf8	0.7062526
143	0x3e8e7300	0.27822113
144	0xbf07e4ac	-0.530833
145	0x3e946b50	0.28988123
146	0x3effe4e5	0.4997932
147	0xbfa8786e	-1.3161752
148	0xbf800b64	-1.0003476
149	0xbf3fa199	-0.74855953
150	0x3f30366b	0.68833035
151	0x3e5b08f8	0.2139014
152	0xbf9a19ed	-1.2039162
153	0xbe6fde3a	-0.23424616
154	0x3ee6619c	0.44996345
155	0xbf9a0682	-1.2033236
156	0xbf3f581a	-0.7474381
157	0xbe15e210	-0.14637017
158	0xbe15b4f8	-0.14619815
159	0xbf99a11b	-1.200229
160	0x3dcc2b38	0.09969181
161	0xbfcb0626	-1.5861251
162	0xbfa0a764	-1.2551084
163	0x3f34d66c	0.7063968
164	0x3e2e025b	0.16993086
165	0x3ed06546	0.40702266
166	0xbdf6e8b8	-0.12056106
167	0x3e2ff3d7	0.17182861
168	0xbff1e18a	-1.8896954
169	0xbf65622f	-0.8960294
170	0x3fa67ac3	1.3006214
171	0x3f2b449f	0.6690158
172	0xbe9d6f5d	-0.30749026
173	0xbf4106b3	-0.7540085
174	0xbdbe7af0	-0.09300792
175	0x3d28305f	0.041061755
176	0xbf07bd75	-0.53023463
177	0x3d8b23b1	0.06793917
178	0x3e2a835a	0.16651669
179	0xbef926fe	-0.4866256
180	0xbd9a8e48	-0.07546669
181	0xbea93623	-0.33049116
182	0xbe57ace2	-0.21062043
183	0x3ed249bc	0.4107188
184	0x3e7ad2bc	0.24494451
185	0x3da6bf91	0.08142007
186	0xbecee49c	-0.4040879
187	0x3f193b0b	0.5985572
188	0xbf2f23be	-0.68413913
189	0x3fa624b9	1.2979957
190	0xbec24cc7	-0.379492
191	0x3f3b37f6	0.73132265
192	0xbf3f6c44	-0.74774575
193	0x3de6f021	0.1127627
194	0xbeb4cda8	-0.35313153
195	0x3fc8ef16	1.5697963
196	0x3f9bcb18	1.2171354
197	0x3f58bd63	0.8466398
198	0x3dc1deee	0.094663486
199	0xbf49a38e	-0.7876519
200	0x3ec8fb67	0.39254305
201	0xbf214b3a	-0.6300541
202	0x3f8f41ef	1.1191996
203	0xbf1ae4cb	-0.6050536
204	0xbef6871b	-0.48149952
205	0xbf3ce6dd	-0.7378977
206	0xbf863122	-1.0483744
207	0xbfdf673e	-1.7453382
208	0xbe005050	-0.12530637
209	0xbf59643c	-0.8491857
210	0xbf95ab4e	-1.1692903
211	0xbde0e4f4	-0.10981169
212	0xbed00cd7	-0.40634796
213	0x3f27a2f6	0.65483034
214	0x3f31eb8e	0.6950005
215	0xbe5ec9b0	-0.21756625
216	0x3c341283	0.010990742
217	0xbdabfa5a	-0.0839736
218	0x3ecba011	0.39770558
219	0x3e65340b	0.22383134
220	0x3f9dd5a9	1.2330829
221	0x3fa171ae	1.2612817
222	0x3f482a79	0.7818981
223	0xbf03cef5	-0.51487666
224	0x3dadc501	0.08484841
225	0xbd7488e3	-0.059700858
226	0x3bf1c0c9	0.007377718
227	0x402e8784	2.7270212
228	0x3e4d31d7	0.20038544
229	0xbd895af3	-0.067068
230	0x3f215b6b	0.6303012
231	0x3de01a80	0.109425545
232	0x3de0f569	0.10984308
233	0xbfde6637	-1.7374943
234	0xbf978d9a	-1.1840088
235	0x3f1b9dab	0.6078746
236	0xbc83fb87	-0.016111149
237	0x3d49e8a4	0.04929413
238	0xbf8a1046	-1.0786216
239	0xbddc4481	-0.107552536
240	0xbe6d1c9b	-0.23155443
241	0x3e0e1ed6	0.1387895
242	0x3e994813	0.299378
243	0x3f77ac0d	0.96746904
244	0x3ec90b24	0.39266312
245	0x3f1e827c	0.61917853
246	0xbe3dcc7d	-0.18535037
247	0xbf4d799e	-0.802637
248	0x3d72040e	0.059085898
249	0xbeaccfc4	-0.33752263
250	0xbf426424	-0.7593405
251	0x3d91ccdf	0.07119154
252	0xbece8528	-0.40335965
253	0x3ea386c5	0.31938758
254	0x3f187824	0.5955832
255	0xbeeeaf48	-0.46618104

rnn.weight_ih_l0 f4 [256, 36]
0	0x3e6d5391	0.2317641
1	0x3e886184	0.266369
2	0xbe091f0c	-0.1339075
3	0xbdd5515b	-0.10415908
4	0x3e9fc1b4	0.3120247
5	0x3eaf2555	0.3420817
6	0x3e3e1611	0.18563105
7	0xbef18d79	-0.47178248
8	0xbee53fba	-0.44775182
9	0x3d18363a	0.03716109
10	0x3c39e2e6	0.011345601
11	0x3d8f869a	0.07008095
12	0x3e4e3cb3	0.20140342
13	0xbcf74fb5	-0.030189374
14	0x3de0f821	0.10984827
15	0xbb26eef1	-0.002547201
16	0xbe31af99	-0.17352141
17	0xbe08e1a5	-0.13367327
18	0x3b0ba64b	0.0021308835
19	0xbc2439d1	-0.01002355
20	0xbeb68a0a	-0.3565219
21	0xbd6ebb02	-0.058283813
22	0x3e8c560d	0.27409402
23	0xbadf7b28	-0.0017050253
24	0x3e6b000f	0.22949241
25	0xbd6b6dee	-0.057477884
26	0x3ebbbcb7	0.36667415
27	0xbe0ba6be	-0.13637826
28	0xbc059d5b	-0.008155192
29	0xbea1416c	-0.31495225
30	0x3d7ef29d	0.062243093
31	0xbd8de372	-0.069281474
32	0xbeb620c0	-0.3557186
33	0x3eff5a82	0.4987374
34	0x3f04f72a	0.5193964
35	0x3f0c02e9	0.5469194
36	0xbe2a85f3	-0.1665266
37	0xbf25341c	-0.6453264
38	0xbd7bb8d9	-0.06145558
39	0x3e7fa504	0.24965292
40	0x3e483d11	0.19554545
41	0x3d310b9e	0.04322397
42	0x3d4f704d	0.050644208
43	0xbd092046	-0.033478044
44	0x3c453858	0.012037359
45	0xbe8fa1c6	-0.2805311
46	0x3f75b65d	0.9598139
47	0xbc03f5e0	-0.008054227
48	0xbdb07964	-0.086169034
49	0xbeb1a941	-0.34699443
50	0x3edc9229	0.4308026
51	0xbbcd92e6	-0.006273615
52	0x3e9f45a2	0.31107813
53	0xbe224400	-0.15846252
54	0xbebe0240	-0.37111092
55	0xbe8da97a	-0.27668363
56	0x3e355842	0.17709449
57	0x3ecee36d	0.40407887
58	0x3d8f67fc	0.07002255
59	0xbf1b9ba9	-0.60784394
60	0xbe2e807b	-0.17041199
61	0xbdbe66b4	-0.09296933
62	0x3ee2e123	0.4431239
63	0xbf2df4f2	-0.6795188
64	0xbe8d9109	-0.27649716
65	0x3e26f9ea	0.16306272
66	0xbca25717	-0.019816918
67	0x3d021d63	0.031766307
68	0x3f9c89ce	1.2229555
69	0x3f84d6af	1.0378016
70	0x3f80a403	1.0050052
71	0x3f858b13	1.0433067
72	0xbd5282d4	-0.0513943
73	0xbd680e80	-0.056654453
74	0xbe8cb31c	-0.274804
75	0xbe944707	-0.2896044
76	0x3dd71ba9	0.10503323
77	0x3b677d2c	0.003532241
78	0xbe7dffa0	-0.24804544
79	0xbdb6b4aa	-0.08921178
80	0xbca2d897	-0.019878669
81	0x3de2e846	0.11079459
82	0x3ec6dcb3	0.38840255
83	0x3e03ba3e	0.12864015
84	0x3e8cd90a	0.27509338
85	0x3e9985c9	0.29984882
86	0x3ede8228	0.43458676
87	0x3da8b20b	0.08237084
88	0xbe87ac83	-0.26498803
89	0xbc7ef328	-0.015560903
90	0xbe4857fa	-0.1956481
91	0xbd98e820	-0.07466149
92	0x3eaa1a99	0.33223417
93	0xbe82198f	-0.25410125
94	0x3e97524a	0.2955497
95	0x3e5e1ed4	0.21691447
96	0xbea19e71	-0.31566194
97	0x3dd17a64	0.10228422
98	0xbd47801d	-0.048706163
99	0x3da4427f	0.080204956
100	0x3b4c89f9	0.0031210168
101	0x3e1cccfe	0.15312573
102	0x3db25bb6	0.08708899
103	0xbe54a837	-0.20767294
104	0x3f0d61a6	0.55227125
105	0x3f8f46f0	1.1193523
106	0x3f9106ad	1.1330162
107	0x3ef5f3da	0.48037606
108	0xbe9c8982	-0.3057366
109	0xbda1235d	-0.07868073
110	0x3e706903	0.23477559
111	0x3f709cfe	0.9398955
112	0x3ee61cae	0.44943756
113	0x3ed23dbd	0.41062728
114	0x3e3704c9	0.17872919
115	0x3def093a	0.11671682
116	0xbec733cc	-0.38906705
117	0x3e56bfbb	0.20971577
118	0x3e4f010e	0.20215246
119	0x3eaf2bf1	0.34213212
120	0xbd97eed6	-0.07418601
121	0xbe8b4afe	-0.27205652
122	0x3e1a286f	0.15054487
123	0xbeb0d85e	-0.34540075
124	0x3b9af751	0.0047291894
125	0x3e348207	0.17627726
126	0x3eb0c0d2	0.3452211
127	0x3e47d8f9	0.19516362
128	0xbc4533f4	-0.012036312
129	0xbec058f0	-0.37567854
130	0x3ee0d29e	0.43910688
131	0xbf3e08ae	-0.74231994
132	0x3d489eaa	0.04897944
133	0xbedd80e7	-0.43262407
134	0x3e282544	0.16420466
135	0xbf39335c	-0.72343993
136	0xbed31e9c	-0.4123429
137	0x3d91c0b7	0.071168356
138	0x3e049df3	0.12950878
139	0xbe35c9ff	-0.17752837
140	0x3f3b62dc	0.7319772
141	0xbee1f5cb	-0.44132838
142	0xbecd0210	-0.40040636
143	0x3debfd2c	0.11522898
144	0xbdc660f2	-0.096864596
145	0xbeef246b	-0.46707472
146	0x3d124db4	0.035718635
147	0x3dc0abc7	0.09407764
148	0x3e338463	0.1753097
149	0x3e337f3e	0.17529008
150	0x3d5c13c2	0.05372978
151	0x3c3ef68c	0.011655461
152	0xbd84378a	-0.06455906
153	0x3e05da78	0.1307162
154	0x3e8f5e72	0.28001744
155	0xbe27e4b5	-0.16395839
156	0x3e035877	0.12826715
157	0xbc8db66f	-0.017298905
158	0x3dc49ecb	0.096006
159	0xbe6dd479	-0.23225583
160	0xbe100655	-0.14064915
161	0x3e83cffc	0.25744617
162	0xbe12b3fc	-0.14326471
163	0x3da0887c	0.07838532
164	0x3d48bf30	0.049010456
165	0xbdae2678	-0.08503431
166	0xbda47843	-0.080307506
167	0x3e9ed8f2	0.3102489
168	0xbda7c1b8	-0.08191246
169	0xbdb0d876	-0.08635037
170	0x3e8b7716	0.27239293
171	0xbe35d89f	-0.17758416
172	0x3d20116b	0.03907911
173	0xbe1b8c60	-0.15190268
174	0xbe7583d6	-0.23976073
175	0xbc864eba	-0.016394962
176	0x3faa20cd	1.329126
177	0xbe080339	-0.1328248
178	0xbea186d9	-0.31548193
179	0xbf11ca18	-0.56948996
180	0xbebf3849	-0.3734763
181	0xbe89165b	-0.26774868
182	0x3e43cfc7	0.1912223
183	0xbe5ac4f4	-0.21364194
184	0xbea0b4d5	-0.31387964
185	0xbdb89ad8	-0.09013909
186	0xbe97b5db	-0.29630932
187	0x3e83092c	0.25592935
188	0x3e7cffb3	0.24706917
189	0x3dd5b1e0	0.104343176
190	0x3e6fae2a	0.23406282
191	0xbf1dc403	-0.61627215
192	0x3e1da53e	0.15395066
193	0x3d7710a9	0.060318623
194	0x3da64f73	0.081206225
195	0xbd7f34f0	-0.062306345
196	0x3eddee8c	0.4334606
197	0x3e2da9b2	0.16959265
198	0x3d6b4bce	0.05744534
199	0x3c27fd31	0.010253237
200	0xbe20da02	-0.15708163
201	0xbe44e6dc	-0.19228691
202	0xbf23a237	-0.63919395
203	0x3ed33148	0.41248536
204	0x3ea36036	0.3190934
205	0xbd38fe51	-0.04516441
206	0xbca74276	-0.020417433
207	0xbe861482	-0.2618752
208	0xbdd2b7ab	-0.10288938
209	0xbe8e57a1	-0.2780123
210	0xbefb8353	-0.4912363
211	0x3f1ca610	0.6119089
212	0x40084eac	2.1298018
213	0xbdba16ab	-0.09086355
214	0xbdf34465	-0.118782796
215	0x3f5cff4b	0.86327046
216	0xbdc0bae2	-0.09410645
217	0x3f04c571	0.5186377
218	0x3edfcd18	0.43711162
219	0x3dedc792	0.11610331
220	0xbee73a3f	-0.45161626
221	0xbe9c5e94	-0.30540907
222	0x3e8c757b	0.2743338
223	0x3e8f3568	0.27970433
224	0x3f0ec6ff	0.55772394
225	0xbe924b3c	-0.28573024
226	0xbe0128cb	-0.12613218
227	0xbf2f1372	-0.68389046
228	0xbd82e651	-0.063915856
229	0x3e899f82	0.26879507
230	0xbccd4d49	-0.025061266
231	0xbebc53f2	-0.36782795
232	0xbe9e905d	-0.30969515
233	0xbdf80b97	-0.121115856
234	0xbec2356a	-0.37931377
235	0xbe19f74f	-0.15035747
236	0x3f0f7d78	0.56050825
237	0x3f3eb42d	0.74493676
238	0x3d1b78f3	0.037957143
239	0xbea4b190	-0.3216672
240	0xbd57af75	-0.052657563
241	0x3f059cd5	0.5219243
242	0x3e26f7a0	0.16305399
243	0x3c245141	0.010029138
244	0x3f1c3e01	0.6103211
245	0xbc8f3be6	-0.017484616
246	0x3eb2c3f5	0.34915128
247	0xbd992eb5	-0.07479612
248	0xbe8c0292	-0.2734571
249	0xbe87c76c	-0.26519334
250	0xbef60e56	-0.48057812
251	0x3f3990d5	0.7248662
252	0xbe5f8d88	-0.21831334
253	0xbdbf33c1	-0.09336043
254	0xbccbaf5b	-0.02486389
255	0x3d48388c	0.048882052

rnn.weight_hh_l0 f4 [256, 64]
0	0xbe4572f3	-0.19282131
1	0xbde060ae	-0.1095594
2	0x3e9151dc	0.28382766
3	0x3f035dd6	0.5131506
4	0xbe89460e	-0.2681126
5	0x3e97f29e	0.2967729
6	0x3d86cb60	0.065817595
7	0xbef8f2e6	-0.48622817
8	0x3d05ca99	0.032663915
9	0xbeffcbc0	-0.49960136
10	0xbe281cc2	-0.1641722
11	0x3e5d7167	0.21625291
12	0x3ecaebeb	0.39633116
13	0xbea904b8	-0.33011413
14	0x3d065f1d	0.03280555
15	0x3df9ba67	0.121937566
16	0x3ed69655	0.4191157
17	0x3f0dc732	0.5538207
18	0xbe25dc1f	-0.16197251
19	0x3f45ff5d	0.7734278
20	0x3e7ffe99	0.24999465
21	0x3f3cd578	0.7376323
22	0xbdacbeea	-0.084348515
23	0x3edb9a87	0.42891333
24	0xbee9a0f0	-0.45630598
25	0x3ef2ca71	0.47420076
26	0x3d345740	0.04402852
27	0x3ec58c84	0.38583767
28	0xbde6a023	-0.112610124
29	0xbc1b406f	-0.009475811
30	0x3f21caf7	0.63200325
31	0x3e14cf85	0.14532287
32	0xbe5bd2fa	-0.214672
33	0xbe14606a	-0.14489904
34	0xbe0b5c24	-0.13609368
35	0xbefc102e	-0.49231094
36	0xbdc1fc92	-0.09472002
37	0x3e5284ed	0.2055852
38	0x3edb434b	0.42824778
39	0xbddf21ec	-0.10895142
40	0x3e435854	0.19076663
41	0xbd1a8203	-0.037721645
42	0xbd739911	-0.059472147
43	0xbe5576d2	-0.20846108
44	0x3e82f3ae	0.25576538
45	0x3eaa2927	0.33234522
46	0xbe184dbd	-0.14873405
47	0xbeee218f	-0.46509978
48	0xbe694063	-0.22778468
49	0xbeb82133	-0.3596283
50	0x3dc0bccc	0.0941101
51	0xbe5f39a3	-0.2179933
52	0xbf2bcc07	-0.67108196
53	0x3eb9297b	0.3616446
54	0xbad7ea46	-0.0016473017
55	0xbd8bc96d	-0.06825528
56	0x3f8e0a63	1.109692
57	0x3d9921a7	0.07477122
58	0x3e5935d8	0.21211946
59	0x3e32153e	0.17390916
60	0xbd4c7dc7	-0.049924638
61	0x3ef5a3e4	0.479766
62	0xbed6d2d1	-0.41957715
63	0xbe0e358a	-0.13887611
64	0xbe4370f7	-0.19086061
65	0xbeda3ba0	-0.42623615
66	0x3e48c083	0.19604687
67	0x3f0ddaab	0.55411786
68	0xbe2faf23	-0.17156653
69	0x3ea0323f	0.31288335
70	0x3da34399	0.079718776
71	0xbef54f8f	-0.4791226
72	0x3f04e2e5	0.51908714
73	0x3e82ec09	0.25570706
74	0xbe22b865	-0.15890653
75	0xbeac289b	-0.3362473
76	0x3e047187	0.12933932
77	0x3cd180ae	0.025574055
78	0x3dccf291	0.10007203
79	0x3e2f3f79	0.17114057
80	0x3e816f78	0.25280356
81	0x3f3603eb	0.7109973
82	0x3d0cb611	0.03435332
83	0xbeeba7a6	-0.46026343
84	0xbd34ff49	-0.04418877
85	0xbd05d4d3	-0.032673668
86	0x3b9b0724	0.004731076
87	0xbca55e2b	-0.020186504
88	0x3eaf5baf	0.34249637
89	0x3ec04276	0.37550706
90	0x3d523307	0.051318195
91	0xbe2081e2	-0.15674546
92	0x3f02eeb7	0.511455
93	0x3e370398	0.17872465
94	0xbe5dd5d8	-0.21663606
95	0x3d5d38b8	0.05400917
96	0x3e70f76e	0.23531887
97	0xbd951390	-0.07279122
98	0xbe5dfeb9	-0.216792
99	0xbe5b4812	-0.21414211
100	0x3ebcdb5f	0.36886117
101	0xbe91f92b	-0.28510413
102	0xbcc46788	-0.023975149
103	0x3e1ab43c	0.15107816
104	0x3e3104e6	0.17287025
105	0xbd8d2a09	-0.06892783
106	0xbe091f29	-0.13390793
107	0x3d165280	0.036699772
108	0x3f4a32fc	0.78984046
109	0xbd407d7d	-0.046994675
110	0xbead1cc0	-0.33810997
111	0xbe19531c	-0.1497311
112	0xbded5ead	-0.115903236
113	0xbe19991f	-0.14999817
114	0xbf22fef3	-0.6367027
115	0xbe497c2c	-0.19676274
116	0xbeaf753b	-0.34269127
117	0xbcd50503	-0.026003366
118	0xbef5fcbe	-0.4804439
119	0x3e24f307	0.16108333
120	0x3dfb82d7	0.12280815
121	0xbdb5762c	-0.0886043
122	0x3cf870d6	0.030327242
123	0x3e1620de	0.14660975
124	0xbed85cda	-0.4225834
125	0x3eaa5edc	0.33275497
126	0x3b3f5c93	0.0029199466
127	0x3dcd1800	0.10014343
128	0xbecb3c6c	-0.39694536
129	0xbdb939e5	-0.09044246
130	0x3e77eccd	0.24211426
131	0x3d8faa7e	0.07014941
132	0xbe3c5697	-0.18392406
133	0x3e9d84cb	0.30765375
134	0x3cfdba86	0.03097273
135	0x3eaff710	0.3436818
136	0x3da36524	0.079782754
137	0x3ece1894	0.40253127
138	0xbf0fb431	-0.56134325
139	0x3e81875a	0.25298578
140	0x3dd25a00	0.102710724
141	0xbe9c6bd7	-0.30551025
142	0x3e0c39b0	0.13693881
143	0xbf2be19b	-0.6714112
144	0x3d9204b4	0.07129803
145	0x3e89a9b8	0.26887298
146	0x3ea03f4a	0.31298286
147	0xbf0f9385	-0.5608447
148	0x3ee02982	0.43781668
149	0xbed29070	-0.41125822
150	0x3e781b5f	0.24229191
151	0xbe22d548	-0.15901673
152	0xbe7743ee	-0.24147007
153	0xbe1b72a2	-0.15180448
154	0x3d4922e9	0.04910556
155	0x3ea3bc6f	0.319797
156	0x3eaea6a2	0.34111506
157	0xbd278a78	-0.04090354
158	0xbf2bacd2	-0.6706058
159	0x3dbcfd1f	0.092279665
160	0x3ebee7fc	0.37286365
161	0x3eea6739	0.45781878
162	0xbf02222f	-0.5083341
163	0x3e9b6226	0.3034832
164	0x3ee1a21e	0.44068998
165	0xbf3794c0	-0.7171135
166	0xbe49ad76	-0.19695076
167	0x3ea8efc9	0.32995442
168	0x3d28f112	0.041245528
169	0xbe082a9d	-0.13297506
170	0xbdc8d4d4	-0.09806219
171	0x3e2c5710	0.16830087
172	0x3f7420f6	0.95362794
173	0x3cf99170	0.030464858
174	0xbf1cb94e	-0.6122025
175	0xbe9b4fdf	-0.30334374
176	0x3ec3b1de	0.3822164
177	0xbeb27c78	-0.34860587
178	0xbf63515f	-0.8879604
179	0x3e1a4501	0.15065385
180	0xbeb2301a	-0.34802324
181	0xbe972b6c	-0.29525316
182	0xbee702a6	-0.45119208
183	0x3e9d872d	0.30767193
184	0xbecc25ef	-0.3987269
185	0xbf027d42	-0.5097238
186	0xbd1687b5	-0.036750514
187	0xbf38efe3	-0.7224104
188	0x3c377f21	0.0111997435
189	0x3f049d30	0.5180235
190	0x3e812369	0.25222328
191	0x3e3e337a	0.18574324
192	0xbeac8966	-0.33698577
193	0xbdf86c4b	-0.1213003
194	0xbc3dae64	-0.0115772225
195	0x3eec1115	0.46106783
196	0x3d692479	0.05691955
197	0x3e899062	0.26867968
198	0xbd4700de	-0.04858481
199	0x3f0f38c7	0.5594601
200	0x3e20986b	0.15683143
201	0x3c9271b8	0.017876491
202	0xbf362208	-0.7114568
203	0x3da27c97	0.0793392
204	0x3d983a80	0.07433033
205	0xbd28a328	-0.041171223
206	0xbe9ccca2	-0.30624872
207	0xbc81b151	-0.015831621
208	0x3e9b65a0	0.3035097
209	0xbdee8dc0	-0.116481304
210	0x3e15f7d1	0.14645316
211	0xbe6cbf30	-0.23119807
212	0x3e023396	0.12714991
213	0xbeed34e7	-0.46329424
214	0xbe46ac12	-0.19401577
215	0xbd944811	-0.07240308
216	0xbe2bf9be	-0.16794488
217	0xbe644adc	-0.22294182
218	0xbec7b0a6	-0.3900196
219	0x3e52d968	0.20590746
220	0x3e885cdb	0.26633343
221	0xbeae3add	-0.34029284
222	0xbe2b7ca5	-0.16746767
223	0x3e301843	0.17196755
224	0x3ebe6532	0.3718658
225	0x3f568b91	0.8380671
226	0xbf11335c	-0.56718993
227	0x3ea1d50e	0.3160786
228	0xbea69705	-0.32537094
229	0xbe917637	-0.28410503
230	0xbea06104	-0.31324017
231	0x3f07fc80	0.5311966
232	0x3dcde304	0.100530654
233	0xbeefd979	-0.46845606
234	0xbe249691	-0.16073062
235	0x3e22ce6a	0.15899053
236	0x3e82542a	0.25454837
237	0x3e359045	0.17730816
238	0xbb2b13ee	-0.0026104408
239	0x3d3c58c4	0.04598309
240	0x3ecb46ae	0.39702362
241	0x3ecc4fce	0.39904636
242	0x3c9e0e55	0.019293943
243	0x3df511e4	0.11966303
244	0x3d9e3bae	0.07726227
245	0xbf031a9f	-0.51212496
246	0x3e003ad8	0.12522447
247	0xbf142426	-0.5786766
248	0xbe89d68a	-0.26921493
249	0xbe63728d	-0.22211666
250	0x3e346619	0.17617072
251	0xbd91355c	-0.070902556
252	0xbda54070	-0.08068931
253	0x3eb63bb0	0.35592413
254	0x3e51ed69	0.20500721
255	0xbea217a5	-0.31658664

rnn.bias_ih_l0 f4 [256]
0	0x3e57c587	0.21071444
1	0x3e84ea3f	0.25959966
2	0x3ec5a640	0.386034
3	0x3e3123f3	0.1729887
4	0x3dec674e	0.11543141
5	0x3eb447a1	0.352109
6	0x3c0316d4	0.008001048
7	0x3e0d72df	0.13813351
8	0xbd04b6f7	-0.03240105
9	0x3deb9a93	0.11504092
10	0xbe32cc99	-0.1746086
11	0xbda63bdd	-0.08116887
12	0x3ee1ceba	0.44103032
13	0xbd592160	-0.053010345
14	0x3e461c41	0.19346716
15	0x3e5adf3f	0.21374224
16	0x3dc2d020	0.09512353
17	0xbeeda211	-0.4641271
18	0xbe42b799	-0.1901535
19	0x3dfce637	0.123485975
20	0x3c391261	0.011295886
21	0x3d66198e	0.056176715
22	0xbe1689dd	-0.14701028
23	0xbdc7c1a6	-0.097537324
24	0xbdfb3c6b	-0.12267383
25	0x3e164389	0.146742
26	0x3d601de4	0.054716006
27	0x3eb1aa54	0.34700263
28	0x3d378b45	0.044810552
29	0x3ee3289d	0.44366923
30	0x3cb2cdd8	0.02182667
31	0x3e294f5b	0.16534178
32	0x3ee0f259	0.43934897
33	0x3e6d296a	0.2316033
34	0x3e74c686	0.23903856
35	0x3d83db64	0.0643833
36	0xbe6f7e76	-0.23388085
37	0xbe725d9a	-0.23668519
38	0x3e33de40	0.1756525
39	0x3d9685a9	0.073497124
40	0x3e32b80a	0.17453018
41	0xbd9a7e1a	-0.07543583
42	0x3d59f7e6	0.05321493
43	0x3cdfdbf4	0.027326562
44	0x3e4eba23	0.20188193
45	0x3da5d67d	0.08097551
46	0x3e227339	0.15864266
47	0xbe528105	-0.2055703
48	0xbdfed6e1	-0.12443329
49	0x3e1a82f7	0.15089022
50	0x3d581c0e	0.05276113
51	0x3e467063	0.1937881
52	0x3cd5fe62	0.026122276
53	0xbd6218fb	-0.055199604
54	0x3eafd3ca	0.3434127
55	0xbc406b88	-0.011744387
56	0xbd30be30	-0.043150127
57	0x3ebee99e	0.3728761
58	0x3d719c67	0.058987048
59	0x3ebf3f1d	0.3735284
60	0x3e804bde	0.25057882
61	0x3e2db164	0.169622
62	0xbdf2c527	-0.1185401
63	0xbe002cc4	-0.12517077
64	0x3e0fa8a3	0.14029174
65	0x3c196a55	0.00936373
66	0xbea3ea2e	-0.32014602
67	0xbe56ccde	-0.20976588
68	0xbec5a6bf	-0.3860378
69	0xbe53be49	-0.20678057
70	0xbe118bc5	-0.14213474
71	0xbe592179	-0.21204175
72	0x3e62352d	0.22090597
73	0xbf136d6b	-0.57588834
74	0x3eba3c09	0.36373928
75	0xbddedb5c	-0.10881683
76	0xbef15938	-0.4713838
77	0xbe3ddcee	-0.18541309
78	0xbdb462b2	-0.08807887
79	0xbf0c334a	-0.5476576
80	0xbe646bc9	-0.22306742
81	0xbed6bcc0	-0.4194088
82	0x3d71d75d	0.059043277
83	0xbe41faf0	-0.18943381
84	0xbdee5c96	-0.11638753
85	0xbe5a8b37	-0.21342169
86	0xbe476816	-0.194733
87	0xbdbe2a3a	-0.09285398
88	0xbdebb57e	-0.11509226
89	0xbe4f54ca	-0.20247188
90	0x3d47f4df	0.04881751
91	0xbe53f19b	-0.20697634
92	0x3e147827	0.1449896
93	0xbe898183	-0.26856622
94	0xbe85a7dc	-0.2610463
95	0xbe769fe6	-0.24084434
96	0xbd20d4c0	-0.039265394
97	0xbdd9414d	-0.10608158
98	0xbe9765ba	-0.295698
99	0xbecda476	-0.40164536
100	0xbe946b3a	-0.28988057
101	0xbe84d4a9	-0.25943497
102	0x3e6da348	0.23206818
103	0x3d31bd1f	0.04339325
104	0x3cabce7f	0.020972488
105	0xbe1468bb	-0.14493077
106	0xbec13814	-0.37738097
107	0xbce8fd4e	-0.028441098
108	0xbe801dab	-0.25022635
109	0x3e0f9d0f	0.14024757
110	0x3cef6bb0	0.029226154
111	0xbe8ed0f1	-0.27893785
112	0xbde61dad	-0.11236129
113	0xbdcc5e83	-0.09978964
114	0xbe01aca1	-0.12663509
115	0xbdf58158	-0.11987561
116	0xbf375817	-0.7161879
117	0x3b5bf1bc	0.0033560833
118	0xbd4415d8	-0.047872394
119	0xbe32378f	-0.17404006
120	0xbec84a23	-0.39119062
121	0xbea9dd15	-0.33176485
122	0xbe10f827	-0.14157163
123	0xbe1a1b4b	-0.15049474
124	0xbe77e706	-0.24209222
125	0xbe8ecb9e	-0.27889723
126	0xbc18ca68	-0.009325601
127	0x3e04f0ba	0.12982455
128	0xbdd18ab2	-0.10231532
129	0xbe9bd86d	-0.30438557
130	0xbe2d59ec	-0.16928834
131	0xbe26a8b4	-0.16275293
132	0xbc79802e	-0.015228314
133	0xbe097061	-0.13421775
134	0xbd02cef8	-0.031935662
135	0x3e243035	0.16034015
136	0x3d9850de	0.07437299
137	0xbdb557d0	-0.088546395
138	0xbe3facb4	-0.18718225
139	0x3da0408c	0.07824811
140	0xbdadac31	-0.084801085
141	0xbe2b59ed	-0.16733523
142	0xbe5415db	-0.20711462
143	0xbe2eeea2	-0.17083219
144	0xbd0dc7af	-0.03461426
145	0x3e0d8501	0.13820268
146	0xbe16adc2	-0.14714721
147	0xbc7fd534	-0.015614796
148	0x3ede07c8	0.43365312
149	0xbdbae0ed	-0.091249324
150	0xbf402948	-0.7506299
151	0x3e66c1bb	0.2253484
152	0xbe30b61a	-0.17256966
153	0x3eb9e4a8	0.36307263
154	0x3dfcf0d2	0.1235062
155	0xbd0d9b5d	-0.034571994
156	0xbd182d70	-0.037152708
157	0xbe706f70	-0.2348001
158	0x3dc3f795	0.09568707
159	0xbcd7531d	-0.026284749
160	0x3de0bffb	0.10974117
161	0x3dea7ba0	0.11449361
162	0x3dcc753d	0.09983299
163	0x3dfbef62	0.12301518
164	0x3d0afe79	0.03393409
165	0x3d263e0e	0.040586524
166	0xbdb55fce	-0.08856164
167	0xbe83d2be	-0.2574672
168	0x3e35ff9e	0.17773291
169	0x3ce17a58	0.027524158
170	0xbe917328	-0.2840817
171	0xbe4461f3	-0.1917799
172	0x3d253e2f	0.040342506
173	0x3d53f995	0.05175169
174	0xbef658d1	-0.48114637
175	0xbd9037ce	-0.07041894
176	0xbe573a17	-0.21018253
177	0x3d8fbdc7	0.07018619
178	0xbe3dcbb0	-0.18534732
179	0xbe3cc881	-0.18435861
180	0x3e9fbc98	0.31198573
181	0xbe770c26	-0.24125728
182	0xbf07899c	-0.5294435
183	0x3d81ce2c	0.06338152
184	0x3d86cfca	0.06582601
185	0xbd5ada15	-0.053430635
186	0xbc639aff	-0.013891934
187	0x3d00f0c2	0.031479605
188	0x3e1dadcc	0.1539833
189	0xbde26799	-0.11054916
190	0xbe057331	-0.13032223
191	0x3eb12c0d	0.3460392
192	0xbeac8fc2	-0.33703429
193	0xbe3d9429	-0.1851355
194	0x3db04fb6	0.08608954
195	0x3f013aba	0.50480235
196	0x3efdb065	0.4954864
197	0x3eeac1da	0.45851022
198	0x3e4926d6	0.19643721
199	0xbbd02e0f	-0.006353147
200	0xbe83008c	-0.25586355
201	0x3dbe567f	0.092938416
202	0xbc8a5600	-0.016886711
203	0xbe03db07	-0.12876521
204	0x3edaa2c5	0.42702308
205	0x3dfccbba	0.12343545
206	0xbe9e3d94	-0.30906355
207	0x3dde08ab	0.10841497
208	0x3d3afaf9	0.045649502
209	0x3dca9800	0.09892273
210	0xbcf8b3c0	-0.030359149
211	0x3cebceb3	0.028785085
212	0xbea144b9	-0.31497744
213	0xbddd6269	-0.10809786
214	0xbe19d8fd	-0.1502418
215	0xbce8f170	-0.028435439
216	0xbe772aa5	-0.24137361
217	0x3e6f1628	0.23348296
218	0x3e8c7a24	0.27436936
219	0x3d8b2ae0	0.06795287
220	0x3e03c777	0.12869059
221	0x3e8d571e	0.27605528
222	0x3e97b547	0.2963049
223	0x3e817754	0.25286353
224	0xbeb6f54e	-0.35734028
225	0x3ee55ecb	0.44798884
226	0x3e618bb5	0.2202595
227	0x3e42dbcf	0.19029163
228	0x3e154657	0.14577614
229	0xbcdc1394	-0.026864804
230	0x3e297114	0.16547042
231	0x3e90f376	0.28310746
232	0xbdf75640	-0.12076998
233	0x3e830611	0.25590566
234	0xbe1ba3a5	-0.15199144
235	0xbe7ba9d2	-0.245765
236	0xbe8ee126	-0.2790615
237	0xbd9d92a5	-0.07693986
238	0xbd9fe322	-0.07806994
239	0x3e998f68	0.29992223
240	0x3c314cee	0.010821564
241	0x3c968e39	0.018378364
242	0xbda0dfae	-0.078551635
243	0x3eb33b80	0.35006332
244	0x3cc52539	0.0240656
245	0xbd106a09	-0.035257373
246	0x3c81db5e	0.015851673
247	0x3e1e18a2	0.15439084
248	0x3db36a10	0.08760464
249	0x3e221bee	0.15830967
250	0xbd27d306	-0.040972732
251	0xbd8200ec	-0.06347832
252	0x3e59fc8b	0.21287744
253	0x3e147f79	0.14501752
254	0xbe4f610e	-0.20251867
255	0x3eed5e5f	0.46361062

rnn.bias_hh_l0 f4 [256]
0	0x3dd9b1c1	0.10629607
1	0x3e2341af	0.15943025
2	0x3ec798d8	0.38983798
3	0xbd276480	-0.04086733
4	0xbcfaadab	-0.03060039
5	0x3ef7bd8b	0.48386797
6	0x3e2c1b35	0.16807254
7	0x3e9522db	0.29128155
8	0xbdd1107b	-0.102082215
9	0xbdc2f184	-0.09518722
10	0xbdb18ea9	-0.086697884
11	0xbe7186fb	-0.23586647
12	0x3eda5978	0.42646384
13	0x3d9f4661	0.077770956
14	0x3d8c6e04	0.06856921
15	0x3dc8def2	0.098081484
16	0xbd51b091	-0.051193777
17	0xbe871f95	-0.26391283
18	0xbe5b7841	-0.21432592
19	0xbcc74997	-0.024327083
20	0x3c4b56d9	0.012410843
21	0x3e2d10e3	0.16900973
22	0xbd5d3d46	-0.054013513
23	0x3de5c4d0	0.1121918
24	0xbe4aecf7	-0.19816957
25	0x3e80804a	0.25097877
26	0x3d85a891	0.06526292
27	0x3e88d758	0.26726794
28	0x3e11ca1e	0.14237258
29	0x3ede55e6	0.4342491
30	0x3ded13f4	0.115760714
31	0x3e13dd27	0.14439832
32	0x3ebdf7e7	0.37103197
33	0x3d72ed1d	0.05930816
34	0x3e84bd7c	0.25925815
35	0xbde7cabd	-0.11317966
36	0xbd303ad5	-0.043024857
37	0xbe486987	-0.19571505
38	0x3dde8bf9	0.108665414
39	0x3d5c4ed5	0.053786118
40	0x3dc5e359	0.09662504
41	0xbe884c1b	-0.26620564
42	0x3d97c85d	0.07411263
43	0x3c430f30	0.011905476
44	0x3e06b5a7	0.13155232
45	0x3e936a23	0.28791913
46	0x3e2f8c46	0.17143354
47	0xbd58ce56	-0.052931152
48	0xbc4d4aee	-0.012530072
49	0x3ebca743	0.3684636
50	0xbe0b4bba	-0.13603106
51	0x3e58c54e	0.21169016
52	0xbdead506	-0.11466412
53	0xbdaa798b	-0.08323964
54	0x3e9a0f7b	0.30089936
55	0x3e002379	0.12513532
56	0x3e08f8f5	0.1337622
57	0x3ea26566	0.31717986
58	0x3d969439	0.0735249
59	0x3ea1f9b8	0.31635833
60	0x3e577c7f	0.21043585
61	0xbb3bbb37	-0.0028645524
62	0xbe3979c6	-0.18112859
63	0xbda08dba	-0.07839532
64	0x3ded5cd0	0.11589968
65	0x3e10fb06	0.14158258
66	0xbed51aa9	-0.41621903
67	0xbe46b8d0	-0.19406438
68	0xbedb7be2	-0.42867953
69	0xbe1c0dfd	-0.15239711
70	0xbddfb14d	-0.10922489
71	0xbe6a22b2	-0.22864798
72	0x3d570525	0.05249514
73	0xbf135114	-0.5754559
74	0x3e7eacb1	0.24870564
75	0xbe9344ae	-0.28763336
76	0xbedde50b	-0.43338808
77	0xbd99902c	-0.07498202
78	0xbe626161	-0.2210746
79	0xbefe7269	-0.49696663
80	0xbe4bec90	-0.1991446
81	0xbeed216e	-0.46314567
82	0x3da48416	0.08033006
83	0xbe46363b	-0.19356625
84	0xbd88ce8c	-0.06680021
85	0xbe3231db	-0.17401831
86	0xbe7199f8	-0.2359389
87	0x3c1b7cf3	0.009490239
88	0xbd88694c	-0.06660709
89	0xbe05177c	-0.1299724
90	0xbd9b4b6f	-0.07582747
91	0xbe8fa0c1	-0.28052333
92	0xbd495731	-0.049155418
93	0xbeb1f672	-0.34758335
94	0xbe86c29e	-0.26320356
95	0xbe776ef2	-0.24163416
96	0x3cbbee97	0.022940917
97	0xbce3ec48	-0.027822629
98	0xbec76bb1	-0.3894935
99	0xbe9553fa	-0.29165632
100	0xbe9684b2	-0.29398113
101	0xbdefaf01	-0.11703301
102	0x3def553e	0.116861805
103	0xbe1a9cc3	-0.15098862
104	0x3d5fa84f	0.05460387
105	0xbdb0d56c	-0.08634457
106	0xbeac6687	-0.33671972
107	0xbe3a5641	-0.18196966
108	0xbeb29dba	-0.3488596
109	0x3c90bb72	0.017667506
110	0x3d8193ed	0.06327043
111	0xbe87c1c2	-0.26515013
112	0xbe0b036b	-0.13575523
113	0x3dcdce2c	0.1004909
114	0x3cca3e04	0.024687774
115	0xbe9c4b64	-0.30526268
116	0xbf184056	-0.5947317
117	0xbe3c9aa7	-0.1841837
118	0xbca95a66	-0.020672988
119	0xbe60cf13	-0.21953993
120	0xbef8f6bc	-0.48625743
121	0xbecb82e4	-0.397483
122	0xbd390526	-0.045170926
123	0x3d949f04	0.07256892
124	0xbe9f6e8c	-0.31139028
125	0xbe155e51	-0.1458676
126	0x3d16e6ee	0.036841325
127	0x3d2ab47f	0.04167604
128	0xbe12c45a	-0.14332715
129	0xbe18dfeb	-0.14929168
130	0xbe272a30	-0.16324687
131	0xbe0fc8af	-0.14041398
132	0x3e05286b	0.130037
133	0xbdb74331	-0.089483626
134	0x3e037115	0.12836106
135	0xbdb06c7e	-0.08614443
136	0x3e19b610	0.15010858
137	0xbd9b6294	-0.07587162
138	0xbdcfbddd	-0.101436354
139	0xbcb25933	-0.02177105
140	0xbd4c2d35	-0.0498478
141	0xbe8f2b8a	-0.27962905
142	0xbe5ecf8b	-0.21758859
143	0x3c84cbea	0.016210515
144	0x3e08d2e4	0.13361698
145	0x3e2be361	0.16785957
146	0xbda16237	-0.07880061
147	0xbc8c4b8d	-0.01712587
148	0x3e9a8c41	0.3018513
149	0xbe29a836	-0.16568074
150	0xbf23fe81	-0.6406022
151	0x3e089671	0.13338639
152	0xbe2916cd	-0.16512604
153	0x3eb36474	0.35037577
154	0xbc921960	-0.017834365
155	0x3cd54349	0.02603306
156	0xbdbae562	-0.091257825
157	0xbda1d212	-0.07901396
158	0x3e8e61cd	0.2780899
159	0x3d9e2d87	0.077235274
160	0x3e478585	0.19484527
161	0x3ce3f42a	0.027826387
162	0x3d737282	0.059435375
163	0xbde87980	-0.11351299
164	0x3d77c2ad	0.06048839
165	0x3e69b498	0.22822797
166	0xbd481300	-0.048846245
167	0xbe58190a	-0.21103302
168	0x3ea9345c	0.3304776
169	0x3e236348	0.15955842
170	0xbe9a0c74	-0.30087626
171	0xbe215cfa	-0.15758124
172	0x3e4adb18	0.1981014
173	0xbd886431	-0.06659735
174	0xbedab6cd	-0.4271759
175	0x3db07d69	0.0861767
176	0xbd6eafbf	-0.058273073
177	0xbd15798c	-0.03649287
178	0xbeadd0ef	-0.33948466
179	0xbe8aa6dc	-0.2708043
180	0x3eccbee6	0.39989394
181	0xbdd47cb9	-0.103753515
182	0xbf08298f	-0.53188413
183	0x3c7c16ca	0.015386293
184	0x3db43f50	0.088011384
185	0xbbf9dc83	-0.007625164
186	0xbcba7afa	-0.022763718
187	0xbe296ef1	-0.16546227
188	0x3d9b30c4	0.07577661
189	0xbe2cfdaf	-0.16893648
190	0xbe1bbbaf	-0.15208314
191	0x3e866741	0.2625065
192	0xbee3d108	-0.44495416
193	0xbe40bcfd	-0.18822093
194	0x3de69ed7	0.11260765
195	0x3ec47049	0.38366917
196	0x3eb8c216	0.36085576
197	0x3f0c86f6	0.54893434
198	0x3ea22963	0.316722
199	0x3dfba8d6	0.12288062
200	0xbe974dfc	-0.29551685
201	0x3e2732b9	0.16327943
202	0xbe061a51	-0.13095976
203	0xbe0f72d9	-0.14008655
204	0x3e781e27	0.24230252
205	0x3e0a365b	0.13497297
206	0xbe852115	-0.26001802
207	0x3e8e8a7b	0.27840027
208	0xbe1fdd08	-0.1561166
209	0xbd9dcded	-0.07705293
210	0x3e42cbf1	0.1902311
211	0x3df98b3b	0.12184759
212	0xbea18771	-0.31548646
213	0xbcdcf003	-0.026969915
214	0xbdc3ab61	-0.09554172
215	0x3cfe6c01	0.03105736
216	0xbe4d67d7	-0.20059143
217	0x3e624f87	0.2210065
218	0x3cff2f55	0.0311505
219	0x3e185c35	0.14878924
220	0x3e004541	0.12526418
221	0x3e48a66f	0.1959474
222	0x3e807f62	0.25097185
223	0x3e9fbf2a	0.31200534
224	0xbe9f1dab	-0.31077322
225	0x3ea34f3c	0.3189639
226	0x3e355e60	0.17711782
227	0x3e354d3d	0.17705245
228	0x3e9daf3b	0.30797753
229	0xbe121de2	-0.14269212
230	0x3dff247e	0.12458132
231	0x3ebfa3a0	0.37429523
232	0xbe95e752	-0.29278046
233	0x3e844068	0.25830388
234	0x3ce4eb0e	0.027944114
235	0xbe77ab53	-0.24186449
236	0xbe79b55d	-0.24385591
237	0xbc248ced	-0.010043365
238	0xbe0f5651	-0.13997771
239	0x3e204222	0.15650228
240	0x3d93fa68	0.072254956
241	0x3d93e35b	0.07221099
242	0xbdea87d5	-0.11451689
243	0x3ee65548	0.4498694
244	0x3e5963dd	0.21229501
245	0xbd3aaeda	-0.045576908
246	0xbcefdca0	-0.029280007
247	0x3e25d701	0.16195299
248	0x3df0281f	0.117264025
249	0x3e31c00d	0.17358418
250	0xbd8a8bef	-0.067649715
251	0x3dd2991d	0.1028311
252	0x3e6e9001	0.2329712
253	0x3e95d70e	0.29265636
254	0xbdf5343e	-0.11972855
255	0x3ede77aa	0.4345067

rnn.weight_ih_l0_reverse f4 [256, 36]
0	0x3e835d70	0.25657225
1	0xbe27e047	-0.16394149
2	0x3e18c790	0.14919877
3	0xbd720c12	-0.059093542
4	0x3cb78de5	0.022406528
5	0xbd020a63	-0.031748187
6	0xbd255090	-0.040360034
7	0xbe44d501	-0.1922188
8	0xbe9e03a0	-0.3086214
9	0xbd7c95a4	-0.061666146
10	0xbe996ec8	-0.29967332
11	0x3dc844a7	0.097787194
12	0x3dd6ef8e	0.1049491
13	0xbdd628a3	-0.104569696
14	0xbd7dd66d	-0.06197207
15	0xbea81a5d	-0.32832614
16	0xbd799e44	-0.06094195
17	0xbdf3cec8	-0.11904675
18	0xbb9809e8	-0.004639853
19	0x3e8b1284	0.27162564
20	0xbddf58ab	-0.10905584
21	0xbe503785	-0.20333679
22	0x3bc3e61a	0.005978358
23	0xbd7dc47e	-0.061954968
24	0xbe88e7ed	-0.26739445
25	0x3da41163	0.08011129
26	0xbcf026d1	-0.029315384
27	0x3e2fb8f8	0.17160404
28	0x3e7bcd82	0.24590114
29	0xbdd795d2	-0.10526623
30	0x3eead55a	0.458659
31	0x3e8536f1	0.2601848
32	0x3df197f6	0.117965624
33	0xbf2c0ec8	-0.67210054
34	0xbf457aa6	-0.7714027
35	0x3d3ea400	0.04654312
36	0x3c5d6416	0.013512632
37	0x3e64409f	0.22290276
38	0xbe47883e	-0.19485566
39	0x3e56b1fd	0.20966335
40	0xbe4ec550	-0.20192456
41	0x3de4bcfd	0.11168859
42	0x3d802c72	0.06258477
43	0xbd2e4a15	-0.04255112
44	0xbe0d1f52	-0.13781479
45	0xbeb34a63	-0.3501769
46	0x3c19d334	0.009388734
47	0xbe2f4b97	-0.17118679
48	0xbe1eef79	-0.15521039
49	0xbe09d7cc	-0.13461226
50	0xbe2904f0	-0.1650579
51	0xbea47432	-0.321199
52	0xbe880711	-0.2656789
53	0xbe8b78ac	-0.27240503
54	0xbd55ccce	-0.05219727
55	0xbd3bc3c6	-0.045841
56	0xbe183b68	-0.14866412
57	0x3d25273d	0.040320624
58	0x3eae5b81	0.34054187
59	0x3d47485c	0.04865299
60	0x3da94f42	0.0826707
61	0xbe1160db	-0.14197104
62	0xbe603867	-0.21896516
63	0x3d9d3b32	0.07677306
64	0xbe92f63c	-0.28703487
65	0xbcadebd2	-0.021230612
66	0x3d8da105	0.06915478
67	0xbdecc5a6	-0.11561136
68	0x3eb496bb	0.35271248
69	0xbf792fc7	-0.9733853
70	0xbf7b3ecb	-0.9814269
71	0xbfa4ab9e	-1.2864873
72	0x3e0490c2	0.12945846
73	0x3ec7031b	0.38869557
74	0x3e57cea9	0.21074928
75	0x3c018b72	0.0079067815
76	0xbd2d990e	-0.042382292
77	0xbe27a410	-0.16371179
78	0xbde919c1	-0.11381865
79	0xbec22d1e	-0.37925047
80	0x3ea6aed7	0.32555267
81	0x3db482f8	0.08814043
82	0xbead73b7	-0.33877346
83	0xbd0f4639	-0.03497908
84	0xbe4cacb6	-0.19987759
85	0xbc86b815	-0.016445199
86	0xbe717590	-0.23580003
87	0xbe161c07	-0.14659129
88	0x3d41eb7c	0.047343716
89	0xbdd05c66	-0.101738736
90	0x3d00f5f2	0.03148455
91	0x3e8680ad	0.26270047
92	0xbca9886c	-0.020694934
93	0x3db6a834	0.08918801
94	0xbd09aadb	-0.033610206
95	0x3d4a3a97	0.049372282
96	0x3e06f1c0	0.13178158
97	0xbe4f6489	-0.20253195
98	0xbe3edd5a	-0.18639126
99	0xbdf86ace	-0.121297464
100	0x3e3472a3	0.17621855
101	0x3dbefde6	0.09325771
102	0xbd8f47ab	-0.069960915
103	0xbcefec39	-0.029287444
104	0x3e9fb5c5	0.31193367
105	0xbe7f6c40	-0.24943638
106	0xbe763702	-0.24044421
107	0xbc5c2c8c	-0.013438355
108	0xbe36202f	-0.17785715
109	0xbe6fc900	-0.23416519
110	0xbed9ef0c	-0.4256519
111	0xbc1b961e	-0.00949624
112	0x3d2550af	0.04036015
113	0x3d52138c	0.051288173
114	0xbc0c7bf1	-0.008574472
115	0x3f22ccb1	0.63593584
116	0x3d958e89	0.07302577
117	0x3d539f90	0.051665843
118	0x3d2f6e8d	0.04283004
119	0xbe93e5ab	-0.2888616
120	0x3e7588a9	0.23977913
121	0x3e0d1455	0.13777287
122	0x3c76e1ac	0.015068453
123	0x3dc955da	0.09830828
124	0xbe09c91e	-0.13455626
125	0xbd7b6d33	-0.061383437
126	0x3c877e50	0.016539723
127	0xbe24ca2a	-0.16092744
128	0xbe2194d2	-0.15779427
129	0xbe03ec90	-0.1288321
130	0x3c8bc54d	0.017061854
131	0x3e939907	0.28827688
132	0x3df083f5	0.11743919
133	0xbde06c79	-0.109581895
134	0x3ddb49e6	0.107074544
135	0xbde5dd75	-0.1122388
136	0xbdc0f3f7	-0.094215326
137	0xbe74e555	-0.23915608
138	0xbe86c719	-0.26323774
139	0x3ec30201	0.38087466
140	0x3f8c5e13	1.0966209
141	0x3f475704	0.7786715
142	0x3f445ba6	0.76702344
143	0x3ebbf1b6	0.36707848
144	0xbe39b189	-0.1813413
145	0xbe487095	-0.19574197
146	0xbe68ea11	-0.22745539
147	0xbc9b9657	-0.018992586
148	0x3e893b53	0.26803073
149	0x3cee7c75	0.02911208
150	0xbddf9525	-0.10917119
151	0x3e0e584d	0.13900872
152	0x3e612da0	0.21990061
153	0xbde1e1f8	-0.11029428
154	0x3d818bbd	0.06325481
155	0xbe3f9889	-0.18710531
156	0xbe6f7b30	-0.23386836
157	0xbe4c0009	-0.19921888
158	0xbd23a1d1	-0.039949242
159	0xbe601c0a	-0.21885696
160	0xbe49c535	-0.19704135
161	0x3e977585	0.29581848
162	0xbe369316	-0.17829546
163	0x3d676ca1	0.05650008
164	0x3c70bae9	0.014693
165	0xbd31f518	-0.04344663
166	0xbe503390	-0.2033217
167	0xbea301a5	-0.31837192
168	0x3e2350a8	0.15948737
169	0x3de417fe	0.11137389
170	0xbe6c97f6	-0.23104843
171	0x3c9f73c5	0.019464383
172	0x3ec3a148	0.38208985
173	0x3e1ee6ad	0.15517683
174	0x3cb780c6	0.022400271
175	0x3db70cc1	0.089379795
176	0xbcf543c2	-0.029939536
177	0xbefd5e04	-0.4948579
178	0xbed3a8e0	-0.4133978
179	0xbf875b15	-1.0574671
180	0xbf888708	-1.0666208
181	0xbe772a6f	-0.24137281
182	0xbda299a7	-0.07939463
183	0xbdd90e8b	-0.10598477
184	0xbf21c91c	-0.63197494
185	0xbf14e802	-0.58166516
186	0xbe995bea	-0.29952937
187	0xbd27c806	-0.04096224
188	0x3e2b5349	0.1673099
189	0x3d4d9c72	0.050198026
190	0x3e17513b	0.1477708
191	0xbf5df0a9	-0.86695343
192	0xbea973fa	-0.33096296
193	0xbf081d61	-0.5316983
194	0xbee218b1	-0.44159463
195	0xbe4c1efb	-0.19933693
196	0x3e9bfb7b	0.30465302
197	0xbdc980d0	-0.09839022
198	0xbf1718b8	-0.5902209
199	0xbed69904	-0.41913617
200	0xbe879202	-0.26478583
201	0xbf504349	-0.8135267
202	0xbefba014	-0.49145567
203	0x3e93fa52	0.28901917
204	0xbd165116	-0.036698423
205	0x3ca9de32	0.020735834
206	0x3e79f172	0.2440851
207	0xbdb5a960	-0.08870196
208	0x3e8bd78c	0.27312887
209	0x3d8a1fd3	0.06744351
210	0xbddeda7f	-0.108815186
211	0x3de28558	0.110605896
212	0xbf1ec39f	-0.62017244
213	0xbf90251a	-1.1261322
214	0xbf859eac	-1.0439048
215	0x3f9d9ab9	1.2312843
216	0x3c7b0a0a	0.015322218
217	0xbd0966ff	-0.03354549
218	0x3e6fd8c8	0.23422539
219	0xbe0a88fe	-0.13528821
220	0xbd175e4e	-0.03695517
221	0x3dd57922	0.10423495
222	0x3edc923b	0.43080315
223	0xbe164058	-0.14672983
224	0x3ce40cc7	0.027838124
225	0x3d1b33ec	0.037891313
226	0xbdf100f9	-0.11767764
227	0x3c7997ee	0.015233977
228	0xbea67c7d	-0.32516852
229	0xbdfc64b7	-0.12323897
230	0xbdbdae1b	-0.092617236
231	0xbde2aa59	-0.110676475
232	0x3cb13ce2	0.021635476
233	0x3d1b87c6	0.03797128
234	0xbdf888fd	-0.121355034
235	0xbbe9bf95	-0.007133434
236	0x3c597743	0.013273063
237	0xbe0b1b3e	-0.13584611
238	0xbe3299f7	-0.17441545
239	0x3df2810b	0.11841019
240	0x387e6494	6.065199e-05
241	0xbe15f4eb	-0.1464421
242	0x3c1161d0	0.008873418
243	0xbef02760	-0.4690504
244	0x3d049416	0.03236779
245	0x3d3b982f	0.04579943
246	0x3e253631	0.16133954
247	0x3d89b496	0.06723897
248	0x3fefa55c	1.8722339
249	0x3f34af30	0.70579815
250	0x3f373f10	0.715806
251	0xbf5ab8c3	-0.85438174
252	0x3e19d176	0.1502131
253	0xbeba99fc	-0.36445606
254	0xbe48c272	-0.19605425
255	0xbdf77e3b	-0.120846234

rnn.weight_hh_l0_reverse f4 [256, 64]
0	0xbeb98f39	-0.36242083
1	0xbe8da3d8	-0.27664065
2	0x3e9df622	0.30851847
3	0x3c5af64a	0.013364384
4	0x3ec77194	0.3895384
5	0xbe4ff7c3	-0.20309357
6	0x3f1d7afa	0.6151577
7	0xbe9c7d90	-0.30564547
8	0x3e86ede0	0.2635336
9	0xbfa293f3	-1.27014
10	0x3e398065	0.18115385
11	0xbe1a993f	-0.15097521
12	0x3da75eb9	0.08172364
13	0xbec994de	-0.3937139
14	0x3f92b7e2	1.1462367
15	0x3ed6a6c4	0.41924107
16	0x3c67a358	0.014138065
17	0xbeb8786b	-0.36029372
18	0x3e9efbdd	0.3105153
19	0xbe6d0fd2	-0.23150566
20	0xbfbfcb79	-1.498397
21	0x3eda3254	0.42616522
22	0xbf444054	-0.76660657
23	0xbe806470	-0.25076628
24	0xbee50c15	-0.4473578
25	0xbeef8688	-0.46782327
26	0xbecfe797	-0.40606377
27	0xbea2f187	-0.31824896
28	0x3eb22372	0.34792668
29	0xbe5d08cd	-0.21585388
30	0xbdfb9307	-0.122839026
31	0xbe8dcdcc	-0.27696073
32	0x3e99ba8b	0.30025133
33	0xbdf30e46	-0.11867957
34	0x3e0dd0a8	0.13849127
35	0xbe50e016	-0.20397982
36	0x3df6e8b8	0.12056106
37	0xbe98847c	-0.29788578
38	0xbecc29de	-0.39875692
39	0xbf2b4492	-0.66901505
40	0xbe940964	-0.28913414
41	0x3ef1e1de	0.47242635
42	0xbeeb5ebe	-0.4597072
43	0x3ca202ff	0.01977682
44	0xbe7be3f3	-0.24598674
45	0x3f30cbb9	0.69060856
46	0x3dff1ee2	0.12457062
47	0xbe8dc710	-0.27690935
48	0x3efa9f85	0.4894983
49	0x3e8e3142	0.27771956
50	0xbd74463b	-0.05963729
51	0xbf735065	-0.9504455
52	0xbedd77ef	-0.43255565
53	0x3e532d6a	0.20622793
54	0xbe4d9912	-0.20077923
55	0x3e6adf15	0.22936662
56	0x3d9dcf45	0.07705549
57	0xbf319c99	-0.69379574
58	0x3e2bfb56	0.16795096
59	0xbdc36bfe	-0.09542082
60	0x3dffcd81	0.12490369
61	0xbe895015	-0.2681891
62	0xbdb3abef	-0.08773028
63	0xbf130f73	-0.5744545
64	0xbedb0fce	-0.42785496
65	0xbe77db51	-0.24204756
66	0x3e4ea7b1	0.20181157
67	0x3eb2a641	0.34892467
68	0x3e3ad738	0.18246162
69	0xbe4d52d1	-0.20051123
70	0xbdcea2d5	-0.100896515
71	0x3e968b3e	0.29403108
72	0x3eb5513e	0.35413545
73	0x3de46de0	0.111537695
74	0xbd58f896	-0.052971445
75	0xbc8080d0	-0.015686423
76	0xbda553d7	-0.08072632
77	0x3ede05a6	0.43363684
78	0x3da49ca7	0.080376916
79	0x3ea70547	0.32621214
80	0x3b306b9c	0.002691961
81	0x3f2fc6ca	0.68662703
82	0x3e5c98e4	0.21542698
83	0xbe9e95cd	-0.30973664
84	0xbe95b4f6	-0.29239625
85	0xba90959b	-0.0011030914
86	0xbd9f18bd	-0.0776839
87	0x3d91bd01	0.07116128
88	0x3e9b5546	0.30338496
89	0x3d7bed96	0.061505876
90	0x3e69a2a2	0.22815946
91	0x3f0c92d7	0.5491156
92	0x3f166586	0.5874866
93	0x3e8a8eea	0.2706216
94	0x3e0fdc6c	0.14048928
95	0xbea2a6d7	-0.31767914
96	0x3e50b118	0.20380056
97	0xbe6bd897	-0.23031841
98	0x3eab36b2	0.33440167
99	0xbe6662ba	-0.22498599
100	0xbc8ceb57	-0.017202063
101	0xbd67d505	-0.056599636
102	0x3e072825	0.13198908
103	0xbd4fc082	-0.0507207
104	0xbdf68d18	-0.1203863
105	0xbe060198	-0.13086545
106	0xbe911306	-0.28334826
107	0xbec2f66d	-0.38078633
108	0xbde9dcb2	-0.114190474
109	0xbd2dd2a3	-0.042437207
110	0x3f15001b	0.58203286
111	0x3dcaa107	0.09893995
112	0x3c00bdf2	0.0078577865
113	0x3e9f559b	0.3112
114	0x3d5a7be4	0.053340808
115	0x3df8f8eb	0.12156852
116	0x3c0d806a	0.008636573
117	0xbcf34dd7	-0.029700203
118	0xbe4b9ecf	-0.198848
119	0x3f0030df	0.5007457
120	0x3d7d067a	0.061773755
121	0xbec913fc	-0.3927306
122	0x3f09775b	0.53697747
123	0x3f08a224	0.53372407
124	0x3ddfc09b	0.109254085
125	0x3ec0a743	0.3762761
126	0x3ecf2689	0.40459087
127	0xbef91fde	-0.48657125
128	0x3dbafafd	0.091299035
129	0xbe0a0372	-0.13477877
130	0xbd0a8ae8	-0.033823878
131	0xbcaf84fa	-0.021425713
132	0x3e02f0da	0.1278719
133	0x3b629dac	0.0034578843
134	0x3e456084	0.19275099
135	0xbedaf483	-0.42764673
136	0x3e0a5800	0.13510132
137	0xbdc94381	-0.098273285
138	0x3e2b7b51	0.1674626
139	0xbea18b16	-0.31551427
140	0xbe5ede7f	-0.21764563
141	0x3eaa4e97	0.33263084
142	0x3dd75b1c	0.105154246
143	0xbedc2845	-0.42999473
144	0xbf23ff8c	-0.6406181
145	0x3e476787	0.19473086
146	0xbe00cf39	-0.12579049
147	0xbe5da891	-0.21646334
148	0x3e157902	0.14596942
149	0x3e2022b9	0.15638246
150	0x3ee33cf1	0.44382432
151	0x3ed53716	0.4164359
152	0x3e99a82e	0.30011123
153	0xbea4e191	-0.32203344
154	0xbea70b80	-0.3262596
155	0x3ee86587	0.4538996
156	0xbe087876	-0.13327202
157	0xbdf7320b	-0.12070092
158	0x3f331783	0.6995775
159	0xbe836e76	-0.25670213
160	0x3f465725	0.7747672
161	0xbf358e35	-0.70920116
162	0x3ec695ab	0.38786063
163	0x3f3b3e3a	0.73141825
164	0x3e0f9e10	0.1402514
165	0xbe54d3bc	-0.20783895
166	0x3def0a03	0.116718315
167	0xbead12ec	-0.338035
168	0x3d8540fc	0.065065354
169	0xbde1b012	-0.11019911
170	0x3ee4d4e1	0.44693664
171	0xbdf8215b	-0.12115737
172	0x3e84569f	0.25847337
173	0x3e2c23ca	0.16810527
174	0x3ea17b18	0.31539226
175	0xbe4c5b8b	-0.19956796
176	0x3efc6145	0.4929296
177	0x3efe11ff	0.49623105
178	0x3e83abd3	0.2571703
179	0x3eeb5153	0.45960483
180	0xbe34b58a	-0.17647377
181	0x3e4cce56	0.20000586
182	0xbe1243c3	-0.14283662
183	0x3d31e47f	0.0434308
184	0x3ee12563	0.43973836
185	0x3ee8de17	0.4548194
186	0xbf0afd2e	-0.5429257
187	0x3f0a5d9e	0.540491
188	0x3e3b2028	0.18273985
189	0xbe207ef3	-0.15673427
190	0x3cf8905c	0.030342273
191	0x3dcffb54	0.10155359
192	0xbe0a756b	-0.13521354
193	0xbdf60c79	-0.12014098
194	0xbdc6dc21	-0.09709955
195	0x3e61ac28	0.22038329
196	0x3da6ed3b	0.08150717
197	0xbc1e0ca0	-0.009646565
198	0xbe9b7840	-0.3036518
199	0x3db2e69c	0.087353915
200	0xbcd9bd3e	-0.026579496
201	0xbd1888ad	-0.03723972
202	0x3db6f932	0.08934249
203	0xbe58c0ab	-0.21167247
204	0xbea7510a	-0.32679015
205	0x3f0de667	0.5542969
206	0x3ebb361b	0.36564717
207	0x3d8e5ecc	0.06951675
208	0xbe1f516d	-0.15558405
209	0x3ecbd0c8	0.39807725
210	0x3ea18775	0.31548658
211	0xbee3624a	-0.44410926
212	0xbe96484a	-0.29352027
213	0xbea1aadc	-0.31575668
214	0x3e0715d7	0.13191925
215	0x3e395b97	0.18101345
216	0x3dddbf9f	0.108275644
217	0xbeab8e2f	-0.33506915
218	0xbc7b0e82	-0.015323283
219	0x3e12a9f9	0.14322652
220	0xbe4a5d9f	-0.19762276
221	0x3eafd3d3	0.34341297
222	0x3f0a82c4	0.5410578
223	0x3d016d22	0.031598218
224	0xbe8b9779	-0.27264002
225	0xbe53cf79	-0.20684613
226	0x3e6c82b7	0.23096739
227	0x3ea586b3	0.3232933
228	0x3e8a1d71	0.26975587
229	0xbe613280	-0.2199192
230	0x3d4f83eb	0.050662916
231	0xbf1c6f65	-0.61107475
232	0x3d8c8769	0.06861765
233	0xbe59d343	-0.21271996
234	0xbe8c3028	-0.2738049
235	0xbe369a89	-0.17832388
236	0x3e4594d2	0.19295052
237	0xbddfdfed	-0.10931382
238	0x3e50589f	0.20346306
239	0xbe4f3aa4	-0.20237213
240	0x3e6c4868	0.23074496
241	0xbe5224a0	-0.20521784
242	0x3ed14953	0.40876254
243	0x3ebb859e	0.3662538
244	0xbda1232e	-0.07868038
245	0x3ed1cee3	0.40978155
246	0xbccac964	-0.024754234
247	0x3ce7fc64	0.028318591
248	0xbe6bfb50	-0.23045087
249	0x3c6000c1	0.013672055
250	0x3e9c1e35	0.30491796
251	0x3f13ebf8	0.57781935
252	0x3ea3dda8	0.32005048
253	0x3d905b67	0.070486836
254	0xbed71034	-0.4200455
255	0x3e520d54	0.20512897
